models_chk/stage2_transeca.pth (torch, 285245 bytes, 33 tensors)

conv1.weight f4 [64, 1, 3]
-0.054151464 -0.33731017 -0.45835215 -0.48509723 0.5975107 -0.13346376 -0.22662972 -0.083199255
-0.14284255 0.32701394 0.5074696 0.5869672 -0.39735487 -0.49105787 0.050014578 -0.37612757
0.32289058 -0.509323 0.16657698 0.40521473 -0.082091 -0.51451784 -0.5498209 -0.48900193
-0.20049927 -0.55655795 -0.31095296 -0.20683385 0.026706154 -0.10630186 -0.086319484 -0.5152478
0.11448186 -0.4222389 -0.3431672 -0.090220496 -0.083681926 -0.14643782 -0.37909687 -0.21910693
-0.48439217 0.22830708 0.19161992 -0.061705526 0.46283147 0.23597476 -0.08977671 0.5254054
-0.11454995 -0.48989537 -0.27353454 0.141589 -0.17344189 -0.21931136 -0.05142594 -0.05190254
0.27537954 -0.023351109 -0.28775567 -0.15707439 0.49259508 -0.5048608 0.00027710557 -0.61254615
-0.346076 -0.37256658 0.3317411 -0.27817273 0.18509763 -0.3714243 0.48388526 0.36646265
-0.41358623 0.38684675 0.028624339 -0.029847715 0.07283561 0.1530807 0.06765657 0.016709335
-0.41494274 0.18533261 0.032094274 0.37935206 -0.030976186 0.0776932 0.11095761 -0.47943485
-0.12594707 -0.3154327 -0.12678826 -0.43638676 0.13092053 0.17183809 0.13661 0.09111756
-0.5279772 -0.038440365 0.37041646 -0.4882937 0.34192646 -0.5249652 0.49290094 -0.15884411
0.29503703 -0.036572296 -0.0024693953 0.047286358 0.47967768 -0.0570751 0.06958455 -0.08056493
-0.51203287 -0.07458131 0.30665025 -0.31397313 -0.49186206 -0.15858352 -0.27346393 -0.4414679
0.3153286 -0.48837462 -0.13335185 0.24765398 0.3186145 -0.2744641 -0.04567135 0.17526677
-0.42338014 0.0468201 0.06960239 0.43277854 0.18650943 -0.10894819 -0.32291955 -0.12808956
-0.15004613 -0.11283816 0.6066702 0.3309894 0.2843618 0.44291836 0.63177747 0.087654404
0.066052854 -0.26612142 -0.091301374 -0.040436674 -0.016850755 0.18548428 -0.29760933 -0.10037604
0.43045792 -0.22293392 -0.006566942 0.36194068 -0.08088949 -0.45710278 0.43249124 -0.123334534
-0.21296844 0.22364567 0.27162462 -0.3794122 -0.3873837 0.14319578 0.38120565 -0.080540724
0.3980227 0.34604993 0.4317855 -0.3219535 -0.51549023 0.19165811 -0.55068034 0.4911039
-0.28636694 -0.46646908 0.17357323 0.11861686 -0.5485708 0.03534892 0.49679062 0.107537314
0.29457352 -0.3304125 -0.32229877 -0.14860818 -0.10450247 0.29108512 -0.22984068 -0.493702
00000000: edcd 5dbd ebb3 acbe 22ad eabe aa5e f8be
00000010: 76f6 183f b9aa 08be 9f11 68be 5f64 aabd
00000020: 5145 12be 5f6e a73e 87e9 013f 7b43 163f
00000030: 1972 cbbe f06b fbbe 16dc 4c3d cb93 c0be
00000040: ea51 a53e fe62 02bf 2893 2a3e 4e78 cf3e
00000050: 541f a8bd 71b7 03bf 10c1 0cbf 765e fabe
00000060: ae4f 4dbe 957a 0ebf 3a35 9fbe 41cc 53be
00000070: ddc6 da3c cab4 d9bd 45c8 b0bd 48e7 03bf
00000080: 7775 ea3d b22f d8be 9cb3 afbe 86c5 b8bd
00000090: 6e61 abbd ccf3 15be fc18 c2be 915d 60be
000000a0: 4002 f8be 55c9 693e 0338 443e efbe 7cbd
000000b0: 3ff8 ec3e 5ea3 713e dadc b7bd f880 063f
000000c0: 2a99 eabd 91d3 fabe b80c 8cbe b5fc 103e
000000d0: c09a 31be 2893 60be 02a4 52bd c297 54bd
000000e0: 8cfe 8c3e d34a bfbc b654 93be 1cd8 20be
000000f0: 6c35 fc3e 8f3e 01bf 7b48 9139 d3cf 1cbf
00000100: e030 b1be 0cc1 bebe f8d9 a93e a86c 8ebe
00000110: 3c8a 3d3e 532b bebe cfbf f73e fea0 bb3e
00000120: 93c1 d3be c710 c63e 977d ea3c 3283 f4bc
00000130: d62a 953d 30c1 1c3e 878f 8a3d 04e2 883c
00000140: 6073 d4be d5c7 3d3e 4975 033d 6f3a c23e
00000150: c5c1 fdbc 9d1d 9f3d be3d e33d 7c78 f5be
00000160: 45f8 00be 6580 a1be c8d4 01be 166e dfbe
00000170: 0810 063e 53f6 2f3e 7ee3 0b3e d89b ba3d
00000180: 8429 07bf a573 1dbd 3aa7 bd3e a201 fabe
00000190: fc10 af3e 1f64 06bf 835d fc3e 08a8 22be
000001a0: 180f 973e d5cc 15bd 94d5 21bb 57af 413d
000001b0: 5098 f53e 94c7 69bd 5882 8e3d 3aff a4bd
000001c0: 9614 03bf 16be 98bd 4301 9d3e 16c1 a0be
000001d0: 58d5 fbbe b863 22be 7703 8cbe 1508 e2be
000001e0: c072 a13e 3d0c fabe 638d 08be 0199 7d3e
000001f0: 7121 a33e 8f86 8cbe e211 3bbd 2279 333e
00000200: 48c5 d8be 6fc6 3f3d b38b 8e3d 2695 dd3e
00000210: 54fc 3e3e 3b20 dfbd b655 a5be e929 03be
00000220: b1a5 19be b117 e7bd bd4e 1b3f 7177 a93e
00000230: df97 913e 32c6 e23e 2bbc 213f 2784 b33d
00000240: b846 873d 1141 88be 37fc babd eda0 25bd
00000250: 980a 8abc 97ef 3d3e 4060 98be f491 cdbd
00000260: fb64 dc3e ca48 64be 812f d7bb 4a50 b93e
00000270: 64a9 a5bd 6009 eabe 7e6f dd3e d196 fcbd
00000280: 6614 5abe 5f03 653e 6212 8b3e 5142 c2be
00000290: 2857 c6be eaa1 123e 632d c33e 89f2 a4bd
000002a0: a2c9 cb3e 752d b13e fd12 dd3e 17d7 a4be
000002b0: 2bf7 03bf 0642 443e 63f9 0cbf f871 fb3e
000002c0: b09e 92be 09d5 eebe 2ebd 313e 65ed f23d
000002d0: 236f 0cbf 07ca 103d 575b fe3e 863c dc3d
000002e0: 57d2 963e d42b a9be 5804 a5be be2c 18be
000002f0: 6405 d6bd 1c09 953e 5b5b 6bbe 82c6 fcbe

conv1.bias f4 [64]
-0.38441417 0.3031028 -0.09168039 0.24082935 -0.051089518 0.4711624 0.20514451 -0.15882047
-0.22548218 -0.23748636 -0.504311 -0.2733139 -0.24114713 -0.018680228 -0.20798767 0.5747596
-0.5767729 -0.1009223 -0.3062896 0.34402815 -0.498407 0.14394431 -0.3909083 0.36018932
0.35729623 0.13387193 -0.105867125 0.057371948 -0.2624969 0.21558315 -0.118380465 0.2724167
-0.5127036 -0.5188706 -0.3113991 -0.29360566 0.35034463 0.30003804 -0.09394578 0.17665179
0.33183604 0.014029673 0.52635336 0.35284132 0.2430898 0.3889822 0.38179815 -0.12438293
-0.1587537 -0.3425055 -0.40741682 0.24819225 -0.07507033 -0.5344444 0.25481683 0.17939885
-0.49254388 -0.1814308 -0.14502524 -0.16977523 0.47004902 0.522029 -0.32942262 -0.5323806
00000000: efd1 c4be 4a30 9b3e eec2 bbbd f89b 763e
00000010: 3e43 51bd 333c f13e 6711 523e d5a1 22be
00000020: cde4 66be a02f 73be 871a 01bf cdef 8bbe
00000030: 46ef 76be 4707 99bc b8fa 54be 7223 133f
00000040: 64a7 13bf 5ab0 cebd fed1 9cbe 7524 b03e
00000050: 342f ffbe 2366 133e 2225 c8be bc6a b83e
00000060: 88ef b63e b915 093e ddd0 d8bd d9fe 6a3d
00000070: fe65 86be d4c1 5c3e 7571 f2bd 347a 8b3e
00000080: 8b40 03bf b4d4 04bf b46f 9fbe 7b53 96be
00000090: 5f60 b33e 969e 993e a566 c0bd 35e4 343e
000000a0: 6ae6 a93e b7dc 653c 18bf 063f 9ea7 b43e
000000b0: 88ec 783e ad28 c73e 0c7b c33e 7abc febd
000000c0: 5490 22be e25c afbe f098 d0be 1c26 7e3e
000000d0: 79be 99bd 59d1 08bf 5a77 823e 55b4 373e
000000e0: b62e fcbe ffc8 39be 7f81 14be 8fd9 2dbe
000000f0: 44aa f03e b1a3 053f 15aa a8be 184a 08bf

bn1.weight f4 [64]
1.006767 1.0015819 1.0123342 0.958505 0.9835235 1.0322508 0.9782768 0.98784524
0.99133503 0.984176 1.0231801 1.0097643 0.9765143 1.0373513 0.9985076 0.9772986
0.9809635 1.051123 1.0604676 1.0065216 0.9948568 1.0032009 0.9733645 1.0257474
1.002731 1.0038898 1.026623 0.9902174 1.0588073 1.0110604 1.047942 0.9603967
1.0211024 0.99844843 0.9599213 1.0194792 0.97576505 1.0067751 1.0568377 0.9878803
1.0476036 0.9747453 1.0580946 0.999321 1.0197692 0.9820383 0.96925384 0.9725592
0.9987961 1.0495446 1.0542952 1.0412471 1.0373985 0.99464273 1.0475291 0.98909837
0.9817891 1.0052477 0.99679154 0.9815026 1.0192654 0.9628264 0.9854818 1.0482777
00000000: bedd 803f d633 803f 2b94 813f 9560 753f
00000010: 32c8 7b3f cb20 843f 5970 7a3f 6de3 7c3f
00000020: 22c8 7d3f f5f2 7b3f 91f7 823f f53f 813f
00000030: d7fc 793f edc7 843f 329e 7f3f 3e30 7a3f
00000040: 6d20 7b3f 338b 863f 67bd 873f b3d5 803f
00000050: efae 7e3f e368 803f 6a2e 793f b14b 833f
00000060: 7d59 803f 767f 803f 6268 833f e37e 7d3f
00000070: ff86 873f 6d6a 813f f722 863f 8fdc 753f
00000080: 7cb3 823f 519a 7f3f 67bd 753f 4b7e 823f
00000090: bdcb 793f 02de 803f 7546 873f b9e5 7c3f
000000a0: e017 863f e888 793f a56f 873f 80d3 7f3f
000000b0: cc87 823f dd66 7b3f 0521 783f a4f9 783f
000000c0: 1ab1 7f3f 7a57 863f 25f3 863f 9647 853f
000000d0: 79c9 843f e8a0 7e3f 6f15 863f 8d35 7d3f
000000e0: 8856 7b3f f5ab 803f bb2d 7f3f c143 7b3f
000000f0: 4a77 823f ca7b 763f 8948 7c3f f72d 863f

bn1.bias f4 [64]
0.00855059 -0.01791979 0.022463515 -0.061884396 -0.011577842 0.018670594 -0.052751288 -0.003659687
-0.012203768 -0.01957967 0.003567973 0.017435038 -0.013280404 0.04633364 -0.04123988 0.0020081548
-0.021205096 0.040641323 0.0008877916 0.010888107 0.0039612157 0.041166704 0.010121907 -0.046761625
0.008227139 0.018985646 -0.005364921 -0.045103475 -0.007275166 0.018557103 0.022052605 -0.075707436
0.020634469 -0.010747424 -0.049245615 0.05482625 -0.05263729 0.034801327 -0.028286144 -0.011553697
-0.014912261 -0.09356937 -0.0027587628 -0.03176985 0.0008539615 -0.007985658 -0.06919752 -0.10404631
0.029902479 -0.033628058 0.008832554 0.026716527 0.010947044 -0.01866114 0.018334659 -0.04462074
-0.018648108 0.019289589 -0.023383537 -0.021110907 0.009751858 -0.08318857 -0.016545188 0.013032059
00000000: c617 0c3c 86cc 92bc 6805 b83c 7e7a 7dbd
00000010: fdb0 3dbc 13f3 983c bc11 58bd 5cd7 6fbb
00000020: 50f2 47bc 8b65 a0bc a7d4 693b edd3 8e3c
00000030: 0d96 59bc 58c8 3d3d 26eb 28bd 3f9b 033b
00000040: 4fb6 adbc 8477 263d b0ba 683a 0864 323c
00000050: 16cd 813b 6b9e 283d 5bd6 253c 1e89 3fbd
00000060: 1fcb 063c c987 9b3c 38cc afbb 6cbe 38bd
00000070: 8464 eebb 1105 983c aaa7 b43c 800c 9bbd
00000080: 9e09 a93c f715 30bc c5b5 49bd 7d91 603d
00000090: 339a 57bd d68b 0e3d 58b8 e7bc b84b 3dbc
000000a0: 8e52 74bc 4ca1 bfbd 5ccc 34bb 1a21 02bd
000000b0: 63dc 5f3a 47d6 02bc 6eb7 8dbd 3b16 d5bd
000000c0: 0bf6 f43c 93bd 09bd 6bb6 103c 9edc da3c
000000d0: 3b5b 333c 3fdf 98bc 9132 963c 3dc4 36bd
000000e0: ebc3 98bc 3305 9e3c d58e bfbc c8f0 acbc
000000f0: 42c6 1f3c c55e aabd c689 87bc 6b84 553c

bn1.running_mean f4 [64]
-0.44969133 0.3000022 -0.1281174 0.35075933 -0.11626921 0.43000224 0.24311452 -0.2782168
-0.30777824 -0.26027507 -0.5423046 -0.3391469 -0.2892034 -0.05655525 -0.16321313 0.62502456
-0.64675105 -0.12103933 -0.29374602 0.30723026 -0.498864 0.040904034 -0.37224737 0.39754167
0.35735208 0.14662145 -0.13075204 0.10313362 -0.24918334 0.14617139 -0.15228343 0.3047439
-0.5269527 -0.57003844 -0.2638509 -0.29323947 0.38835105 0.24894919 -0.13210596 0.109950095
0.30932266 0.038336243 0.5031291 0.39376917 0.22194989 0.3582644 0.4747341 -0.03383799
-0.18175346 -0.3313505 -0.41145533 0.2577068 -0.0833451 -0.54395634 0.21432298 0.21334875
-0.4009001 -0.23174585 -0.17318584 -0.18342756 0.46798027 0.5319091 -0.37407756 -0.56607807
00000000: f13d e6be e399 993e 3531 03be ba96 b33e
00000010: 8d1e eebd 4129 dc3e 03f3 783e 6f72 8ebe
00000020: 1c95 9dbe c642 85be 79d4 0abf aaa4 adbe
00000030: 7812 94be 7aa6 67bd 5821 27be 9c01 203f
00000040: 7a91 25bf 78e3 f7bd e165 96be 494d 9d3e
00000050: 1a6b ffbe fd8a 273d 3597 bebe 958a cb3e
00000060: daf6 b63e ef23 163e dde3 05be b837 d33d
00000070: eb29 7fbe f4ad 153e 30f0 1bbe 6407 9c3e
00000080: 5fe6 06bf 0aee 11bf 7717 87be 7c23 96be
00000090: f3d5 c63e 89ec 7e3e c946 07be 842d e13d
000000a0: 8a5f 9e3e 7706 1d3d 12cd 003f 1d9c c93e
000000b0: d546 633e 6e6e b73e 5910 f33e b499 0abd
000000c0: 941d 3abe c6a6 a9be 46aa d2be 25f2 833e
000000d0: d6b0 aabd b940 0bbf 7c77 5b3e 1878 5a3e
000000e0: c742 cdbe c94e 6dbe a157 31be 6fd4 3bbe
000000f0: 1c9b ef3e 322b 083f 1887 bfbe 7eea 10bf

bn1.running_var f4 [64]
0.021416087 0.024342235 0.004854042 0.04813133 0.025643619 0.019984998 0.011546192 0.055310722
0.030434407 0.002675529 0.0151960775 0.0203104 0.010649206 0.018073894 0.012407488 0.016184453
0.021956807 0.0056903823 0.004093023 0.007020963 0.02117886 0.041336104 0.008489661 0.027584545
0.013991333 0.0017878634 0.009318722 0.009781417 0.001175835 0.020430552 0.012123055 0.0038124998
0.02303365 0.025222516 0.015816715 0.00019391297 0.01198763 0.016638732 0.025042122 0.019369505
0.017261768 0.012778229 0.009347157 0.011051406 0.008548204 0.0035719355 0.036243666 0.040132362
0.00465971 0.0019003538 0.015185993 0.009833922 0.018017732 0.005521507 0.021063596 0.00991168
0.031030847 0.023514537 0.023937585 0.012930495 0.030060472 0.009730072 0.008730034 0.021815
00000000: ca70 af3c 5e69 c73c a80e 9f3b 5c25 453d
00000010: 9112 d23c 94b7 a33c 3d2c 3d3c 7f8d 623d
00000020: 9451 f93c ee57 2f3b f8f8 783c ff61 a63c
00000030: 027a 2e3c b40f 943c c748 4b3c 4295 843c
00000040: c3de b33c 6376 ba3b c41e 863b 1b10 e63b
00000050: 4a7f ad3c 0c50 293d 3818 0b3c fcf8 e13c
00000060: e73b 653c be56 ea3a 8ead 183c 3d42 203c
00000070: 7a1e 9a3a f95d a73c c79f 463c 22db 793b
00000080: 11b1 bc3c 739f ce3c 0e92 813c 1e55 4b39
00000090: c467 443c f34d 883c 2325 cd3c ccac 9e3c
000000a0: 8d68 8d3c c75b 513c d124 193c f510 353c
000000b0: c40d 0c3c 2217 6a3b 3d74 143d d561 243d
000000c0: 7bb0 983b 4b15 f93a acce 783c 751e 213c
000000d0: ec99 933c c2ed b43b 908d ac3c 9964 223c
000000e0: 6734 fe3c 8fa1 c03c c118 c43c 6dda 533c
000000f0: 6141 f63c e16a 1f3c 6b08 0f3c 5fb5 b23c

eca.conv.weight f4 [1, 1, 3]
-0.54007417 -0.4710389 -0.52210164
00000000: 4d42 0abf 032c f1be 74a8 05bf

transformer.layers.0.self_attn.in_proj_weight f4 [192, 64]
0.020366415 0.113863826 0.028815156 0.1155214 -0.003425595 0.022356873 0.021417985 0.10818444
0.16122843 0.14250056 -0.075445294 -0.028102558 0.011625145 0.11309522 0.06414576 0.017020566
0.0335008 0.13339987 -0.017151773 0.073306456 -0.051643796 -0.12079467 0.10550192 0.014148016
-0.08459902 0.025466835 -0.008753416 -0.13247235 -0.024764095 -0.0327754 0.076834336 0.1346566
-0.14502262 0.0045848703 -0.113623396 -0.075280786 -0.029471649 0.13316046 0.016273236 -0.03547522
-0.076928355 0.1641815 -0.004701889 -0.082600705 -0.12053965 -0.07354042 0.16099669 0.04596401
0.07387282 -0.03382245 -0.098129585 -0.059490684 0.14345488 -0.007236551 -0.06872887 -0.00431325
-0.1112793 -0.042489823 0.041283622 0.14626083 0.003011219 -0.0272489 0.046041287 0.003697819
0.028765758 -0.029825876 -0.08737338 -0.13954864 0.02942775 0.020131268 0.011383242 -0.12343911
0.015506183 0.014991322 0.0046197507 0.008324649 -0.16085462 0.02411046 0.058481615 -0.11556593
0.0841645 0.024472116 0.02755282 -0.08112869 -0.136058 0.076253325 0.08290516 0.08019493
0.090208694 -0.15289733 -0.11617542 -0.12812284 0.0816565 0.100621976 0.0034101075 0.055425707
-0.045142993 0.08600524 0.09381955 -0.019622305 -0.096360385 -0.08428185 -0.1706337 -0.011485518
0.041832924 -0.04584266 -0.13182686 -0.11022076 -0.1140597 0.085686505 -0.17555563 -0.17042834
-0.019431466 0.13716863 -0.0069738384 -0.022715423 0.029191086 -0.06644044 0.06246683 0.09567898
-0.068536565 -0.10464742 0.02656425 -0.14369631 -0.05592949 0.107205294 -0.0227533 -0.0803502
-0.03171554 0.27669895 0.18567507 0.10098107 -0.013235001 0.06551366 0.14403126 0.020229997
0.0658316 0.003030788 -0.059025086 0.1393539 -0.0029024286 0.08744332 -0.009846146 0.15819025
-0.026720956 0.13294761 0.0740649 0.18437827 0.29503056 0.08278521 0.07338509 0.10934563
0.19636883 0.06711238 -0.045797322 0.22229788 0.12229204 0.17534669 0.18364707 0.12801763
-0.06394362 0.18761608 0.0702121 -0.02042156 0.08266359 0.078154564 0.22667816 -0.004469498
0.048380382 0.24696699 0.044750057 0.023652686 0.22504096 0.20472847 0.08815194 0.10321413
0.10841719 0.1859249 -0.02862262 0.11351491 0.24128042 0.1867781 0.018945847 0.08980268
0.14634791 0.0055918675 0.09751643 0.006277937 0.14243299 0.31958154 -0.00829929 0.20562647
0.05955976 0.1427107 -0.01844134 -0.05733773 -0.037185635 -0.07897556 0.0007096087 -0.064772874
-0.07434293 0.13111167 0.009531564 -0.06354619 -0.035056848 0.045223985 -0.09695638 0.097351976
-0.1207706 0.09445953 0.101929076 0.025724078 0.058715627 -0.08838843 -0.15448245 0.03393818
0.06747057 -0.1102292 0.029496556 -0.0024604432 0.037489932 0.026245229 -0.01778274 0.02781601
-0.14365625 0.013568591 0.07450343 0.009034749 -0.06601853 -0.12954034 -0.12796137 -0.10225178
0.10055744 0.06067357 -0.12734374 -0.14474526 -0.0672092 -0.11569894 -0.07797686 -0.12924826
0.1260683 0.08065073 -0.07902001 -0.0301524 0.038625225 0.092509344 0.04626871 0.049752306
-0.03568544 -0.070904784 -0.053612422 -0.093283884 0.1445166 -0.11851862 -0.07228478 -0.048916902
00000000: 78d7 a63c 7031 e93d c30d ec3c 7c96 ec3d
00000010: f27f 60bb c325 b73c c574 af3c ce8f dd3d
00000020: 1119 253e abeb 113e 1083 9abd 5637 e6bc
00000030: 6477 3e3c 779e e73d da5e 833d b76e 8b3c
00000040: 2338 093d fa99 083e e081 8cbc b221 963d
00000050: 7288 53bd 3263 f7bd 6411 d83d 15cd 673c
00000060: 4042 adbd d39f d03c 7d6a 0fbc d5a6 07be
00000070: 12de cabc 7f3f 06bd 525b 9d3d 6be3 093e
00000080: cf80 14be ae3c 963b 62b3 e8bd d02c 9abd
00000090: 876e f1bc 375b 083e 734f 853c 774e 11bd
000000a0: 9d8c 9dbd 321f 283e 4e12 9abb 8f2a a9bd
000000b0: 7edd f6bd 5c9c 96bd 51dc 243e c244 3c3d
000000c0: a24a 973d 6989 0abd 2af8 c8bd 81ac 73bd
000000d0: d6e5 123e 9720 edbb b9c1 8cbd 2a56 8dbb
000000e0: 67e6 e3bd cf09 2ebd 0419 293d 66c5 153e
000000f0: df57 453b 1639 dfbc ca95 3c3d 1c57 723b
00000100: 2ba6 eb3c 6555 f4bc d1f0 b2bd d7e5 0ebe
00000110: 7712 f13c 54ea a43c c780 3a3c a5cd fcbd
00000120: a50d 7e3c 299e 753c 4761 973b 1c64 083c
00000130: 13b7 24be 4d83 c53c 6b8a 6f3d d5ad ecbd
00000140: 705e ac3d bf79 c83c 74b6 e13c cc26 a6bd
00000150: ca52 0bbe b42a 9c3d 2eca a93d 3d3d a43d
00000160: 56bf b83d 1e91 1cbe 61ed edbd a232 03be
00000170: 863b a73d e512 ce3d 1c7c 5f3b 1106 633d
00000180: dce7 38bd 8423 b03d 7724 c03d f5be a0bc
00000190: 9858 c5bd f69b acbd 9aba 2ebe c12d 3cbc
000001a0: 0059 2b3d 83c5 3bbd 9ffd 06be 6cbb e1bd
000001b0: 2298 e9bd 687c af3d dbc4 33be c484 2ebe
000001c0: bd2e 9fbc ef75 0c3e cc84 e4bb b215 babc
000001d0: 2522 ef3c ed11 88bd 38dd 7f3d 57f3 c33d
000001e0: e65c 8cbd 6351 d6bd 459d d93c 2025 13be
000001f0: 5216 65bd 738e db3d 2165 babc a58e a4bd
00000200: 27e8 01bd 7cab 8d3e 9b21 3e3e 2acf ce3d
00000210: 9ed7 58bc 072c 863d ee7c 133e 61b9 a53c
00000220: b8d2 863d 2fa0 463b 4ac4 71bd cab2 0e3e
00000230: ac36 3ebb 7c15 b33d bb51 21bc a0fc 213e
00000240: e8e5 dabc 6b23 083e 57af 973d a8cd 3c3e
00000250: 3f0e 973e 4b8b a93d ec4a 963d 9af0 df3d
00000260: e914 493e 3772 893d f995 3bbd 0ea2 633e
00000270: 4074 fa3d 158e 333e fa0d 3c3e 0e17 033e
00000280: dff4 82bd 6e1e 403e 5dcb 8f3d 1e4b a7bc
00000290: 874b a93d 800f a03d 521e 683e de74 92bb
000002a0: 822a 463d eae4 7c3e d64b 373d 47c3 c13c
000002b0: 2371 663e 57a4 513e 0189 b43d ee61 d33d
000002c0: d509 de3d 1963 3e3e fc79 eabc 817a e83d
000002d0: 3712 773e c242 3f3e 5234 9b3c 78ea b73d
000002e0: 3adc 153e fc3b b73b b2b6 c73d 27b7 cd3b
000002f0: f4d9 113e 31a0 a33e bff9 07bc bf8f 523e
00000300: eff4 733d c122 123e 4b12 97bc f8da 6abd
00000310: f74f 18bd f0bd a1bd 0905 3a3a a4a7 84bd
00000320: 1b41 98bd 2342 063e 472a 1c3c 8124 82bd
00000330: c597 0fbd c93c 393d 1191 c6bd 7960 c73d
00000340: 9456 f7bd 0074 c13d 31c0 d03d 4dbb d23c
00000350: cc7f 703d fe04 b5bd a630 1ebe c302 0b3d
00000360: 032e 8a3d d9bf e1bd c3a2 f13c 633f 21bb
00000370: 0b8f 193d 3c00 d73c 1cad 91bc 67de e33c
00000380: a01a 13be cc4e 5e3c 4195 983d 7c06 143c
00000390: b934 87bd 39a6 04be 4e08 03be 6269 d1bd
000003a0: 0ff1 cd3d d984 783d 6666 02be 1a38 14be
000003b0: faa4 89bd 91f3 ecbd 55b2 9fbd a859 04be
000003c0: 0c18 013e 362c a53d 3ed5 a1bd 2a02 f7bc
000003d0: 7c35 1e3d 8a75 bd3d 4284 3d3d 13c9 4b3d
000003e0: e52a 12bd 8736 91bd b398 5bbd 9f0b bfbd
000003f0: 29fc 133e e4b9 f2bd 0b0a 94bd 175d 48bd

transformer.layers.0.self_attn.in_proj_bias f4 [192]
0.00727252 -0.0037327674 0.1050093 0.0113135455 -0.04987703 -0.059546452 0.028532486 0.062202394
-0.12235677 -0.11257293 0.0016741499 0.10517783 -0.02445992 -0.010761375 0.08147693 0.010528722
-0.02574131 -0.010089346 0.007086255 -0.0068536517 0.004060108 0.021731326 -0.0005128296 0.0041149114
0.01279218 0.0051210686 -0.0023778055 0.017092345 0.014283459 -0.0044842013 -0.009451807 0.008594159
0.023168204 -0.020145781 0.02668506 0.011815831 -0.01633127 -0.03231159 0.0059774523 0.011681539
0.0016624788 -0.0009046609 0.01419738 0.02333498 0.06482557 0.034079857 0.03855643 0.025262322
-0.025743844 0.043812633 0.069334716 0.0049327007 -0.024435855 0.031904932 0.101901956 0.03109151
0.03471641 0.04988989 -0.023482317 0.12984362 0.05367861 0.014435878 0.023490665 -0.0130501045
-3.7509188e-05 -0.00015310988 -0.0007261667 6.5812415e-06 0.00028440182 -0.00017915554 0.0003999916 -1.1871216e-05
0.00061316695 0.0010404374 -0.00017654212 0.00056914875 0.0011083543 0.00019398631 0.00018211936 -9.082701e-05
0.00040599782 -1.540076e-05 7.304662e-05 -2.0537407e-05 -9.886094e-05 -0.00043702094 -0.00016482815 0.00012258625
0.00016835812 0.00020735421 1.8909554e-05 -5.0900322e-05 0.00018312235 -6.0250426e-05 8.134937e-05 -3.658397e-07
-7.465956e-05 1.723812e-05 0.00018223547 -0.0004865774 2.6257738e-05 8.389741e-05 0.00014985814 -7.100127e-05
1.7279977e-05 5.720064e-05 0.00021667028 5.741081e-06 -0.00032459793 0.00018566947 1.4056479e-05 2.0643169e-05
-0.0005750156 0.0005236611 0.00037885955 4.515597e-05 -0.00019744119 -1.5211549e-05 0.0006961885 6.4672524e-05
2.181926e-05 0.0002625604 -0.00040250947 0.00040914342 0.00023470083 -7.1571725e-05 -4.661237e-05 -7.124287e-05
-0.004384874 0.015322765 0.0010031214 0.019056506 -0.0055161836 0.009868215 0.03530337 0.0048215613
-0.0035306145 0.021564297 -0.028763287 -0.016141066 0.00014090797 -0.0074578943 -0.0016821602 0.0045903563
-0.026000714 -0.0122713875 0.015354608 -0.0128983315 -0.0041959095 0.004490733 -0.011489395 0.005018406
-0.013707998 0.023171816 0.0024461485 -0.0141486935 0.0079187155 0.024454657 -0.008278707 0.015535426
0.008396464 -0.002316558 -0.0001876694 0.011300293 -0.024266947 0.016211458 -0.002440746 0.011159831
3.1007414e-05 -0.018054131 0.015999699 0.011974411 -0.00013198178 0.0053903144 0.0032257068 -0.0035132691
0.0064721685 0.0005878913 0.012560829 -0.007199907 -0.002341875 0.018155314 0.022390898 0.011179167
-0.008664636 0.0009867268 -0.016703254 -0.009143848 0.012777937 -0.016141862 0.0032464687 -0.0034215918
00000000: 524e ee3b 72a1 74bb 1e0f d73d 735c 393c
00000010: db4b 4cbd fbe6 73bd f6bc e93c f0c7 7e3d
00000020: 3096 fabd a38c e6bd 266f db3a 7967 d73d
00000030: 2c60 c8bc 7a50 30bc 60dd a63d a980 2c3c
00000040: 71df d2bc c94d 25bc d133 e83b 9994 e0bb
00000050: a80a 853b e505 b23c 696f 06ba 61d6 863b
00000060: 4b96 513c a3ce a73b f5d4 1bbb 3f05 8c3c
00000070: 2b05 6a3c 35f0 92bb c0db 1abc 84ce 0c3c
00000080: 3fcb bd3c c408 a5bc a09a da3c 3097 413c
00000090: 28c9 85bc 2859 04bd 81de c33b ed63 3f3c
000000a0: 88e7 d93a c426 6dba 219c 683c 0029 bf3c
000000b0: 45c3 843d 5297 0b3d 59ed 1d3d eef2 ce3c
000000c0: c1e4 d2bc e074 333d 5cff 8d3d 7ea2 a13b
000000d0: b42d c8bc bfae 023d f9b1 d03d 9fb3 fe3c
000000e0: cb32 0e3d 5759 4c3d fd5d c0bc baf5 043e
000000f0: 1ade 5b3d 7684 6c3c 7f6f c03c 1bd0 55bc
00000100: 2f53 1db8 1f8c 20b9 395c 3eba 6fd4 dc36
00000110: c41b 9539 b3db 3bb9 f7b5 d139 7c2a 47b7
00000120: f0bc 203a 495f 883a 2a1e 39b9 ed32 153a
00000130: 3346 913a ce68 4b39 4bf7 3e39 617a beb8
00000140: 1bdc d439 e130 81b7 9b30 9938 bf47 acb7
00000150: 9053 cfb8 f51f e5b9 b8d5 2cb9 7f8a 0039
00000160: 4a89 3039 396d 5939 f59f 9e37 ce7d 55b8
00000170: 8804 4039 67b5 7cb8 1c9a aa38 a068 c4b4
00000180: 8c92 9cb8 959a 9037 7616 3f39 501b ffb9
00000190: 1044 dc37 14f2 af38 3d23 1d39 84e6 94b8
000001a0: 78f4 9037 b8ea 6f38 fc31 6339 83a3 c036
000001b0: cc2e aab9 45b0 4239 1ed4 6b37 de2a ad37
000001c0: a5bc 16ba 4d46 093a aba1 c639 db65 3d38
000001d0: 3708 4fb9 1b35 7fb7 6b80 363a cca0 8738
000001e0: 8108 b737 43a8 8939 e807 d3b9 4d82 d639
000001f0: 061a 7639 c718 96b8 a781 43b8 3968 95b8
00000200: fdae 8fbb 560c 7b3c 2b7b 833a 641c 9c3c
00000210: 1ac1 b4bb 4bae 213c 449a 103d 30fe 9d3b
00000220: e261 67bb 9ca7 b03c fca0 ebbc 453a 84bc
00000230: b2c0 1339 5a61 f4bb ee7b dcba b36a 963b
00000240: 73ff d4bc ee0d 49bc e591 7b3c 8653 53bc
00000250: d77d 89bb 0027 933b 043e 3cbc 7171 a43b
00000260: 8397 60bc d2d2 bd3c 904f 203b eccf 67bc
00000270: 80bd 013c 2255 c83c 6aa3 07bc 4d88 7e3c
00000280: 5391 093c 65d1 17bb 1fc9 44b9 dd24 393c
00000290: 7acb c6bc e4cd 843c ecf4 1fbb b9d7 363c
000002a0: f50d 0238 42e6 93bc cd11 833c 5230 443c
000002b0: 9764 0ab9 3ca1 b03b 6166 533b e03e 66bb
000002c0: 7c14 d43b b81c 1a3a efcb 4d3c 33ed ebbb
000002d0: 257a 19bb 74ba 943c 1e6d b73c d328 373c
000002e0: 1ef6 0dbc 0f55 813a 43d5 88bc 14d0 15bc
000002f0: 8d5a 513c f03b 84bc b5c2 543b c93c 60bb

transformer.layers.0.self_attn.out_proj.weight f4 [64, 64]
-0.03659513 -0.12860166 0.03861143 0.05669655 0.1136838 0.032457706 -0.045392938 -0.052546296
-0.07523277 -0.10386419 -0.05919929 0.09043456 0.04853556 -0.037297327 0.05408567 0.08978941
-0.012904181 -0.09994703 0.019536197 0.011579083 0.04755197 0.07050889 -0.10068672 0.057764236
-0.13475513 0.04434835 -0.0364616 0.012606629 -0.02838466 -0.053628292 0.0006222431 0.08083125
0.11899679 0.025819303 -0.01097473 0.10354043 0.10618042 0.07746142 0.06862861 0.060242247
-0.07735444 -0.081902914 0.11048403 -0.06365242 -0.08281789 0.07245174 -0.124539725 0.03999049
-0.018442398 0.031539038 -0.035208143 0.008090575 0.03550639 -0.00857173 -0.06481812 0.026627628
-0.024485366 0.08433883 -0.12049773 0.061165772 -0.04838917 0.023888469 -0.05754199 0.001798039
0.14218043 0.12888072 0.020030795 0.032183032 0.07535807 0.022199938 -0.036778565 -0.05918471
-0.045814242 -0.016490744 0.05482869 -0.01828222 -0.07300367 0.0043097804 -0.0029498592 -0.026838964
0.07457202 0.052227974 -0.009110336 -0.08474552 -0.032422684 -0.032043125 0.075955294 -0.07108613
0.054966297 -0.06762172 0.095018536 -0.13098231 -0.092956625 0.08115521 -0.0813928 -0.061794966
-0.024423653 -0.10234818 -0.0068463087 0.03726059 0.026605133 0.03793805 0.11168663 -0.10582926
-0.0398894 0.11369258 -0.074769154 0.024600206 -0.051358294 0.007214585 0.028137853 0.08743985
0.010626944 0.0722113 -0.0062815687 0.10847682 -0.088966005 -0.01862691 0.042901188 0.065987885
-0.06798152 -0.01213385 0.059811097 0.02561258 0.14566097 0.02190746 0.016049214 -0.027748005
-0.022213781 0.05143178 0.104639225 0.05793207 0.10028106 -0.112066284 0.04399214 0.01570377
0.012734 -0.115097284 0.10601175 -0.015954368 -0.03424592 0.10880005 0.13067056 0.10507468
0.065305196 -0.002225509 -0.05977122 0.080264516 0.03458278 0.08737205 -0.10655326 -0.039691143
-0.049282994 -0.10453747 -0.05387285 0.057360753 0.0014981036 0.04170579 0.117579475 0.052502498
0.0237895 0.11797979 -0.071913935 0.11272808 0.04038132 -0.057528198 0.027095344 0.034051873
-0.0913067 -0.022433778 0.09439151 0.10653465 -0.111890346 0.09750593 -0.03322657 -0.10422971
0.10137159 -0.00474826 0.11928608 -0.06630979 0.011670559 -0.020636642 -0.035097085 0.080276236
0.07936142 0.040936183 0.04982693 -0.045468707 -0.0103532765 -0.046056096 0.115901396 0.06366747
0.04039607 0.015346942 -0.031886797 0.12284035 0.083675414 0.087144636 -0.05815915 -0.0155222695
-0.016538333 0.07451376 0.10909418 0.0060800337 -0.09361239 -0.012961537 -0.05096449 0.12643793
-0.079439804 -0.07079285 0.10621907 -0.10877536 -0.06252702 0.03433645 0.017940039 -0.086840324
-0.07839022 0.014565167 0.11485483 -0.11272507 0.10728453 0.095691405 -0.07336562 0.004136538
0.009730134 0.07132678 -0.08105224 0.068405926 -0.1359153 -0.114765875 0.09879627 0.08317029
-0.0014006 0.11346406 0.03286081 0.081838496 -0.0390189 -0.13607325 0.09463356 0.1047379
0.108229384 -0.08637179 0.047523472 0.06826611 0.07074936 0.06959315 -0.042857256 0.10555941
0.023540521 0.10695288 0.1234966 -0.019727282 -0.05623034 0.10549031 -0.088366695 -0.025599819
00000000: c6e4 15bd 27b0 03be 0527 1e3d a43a 683d
00000010: 0dd3 e83d 5ff2 043d f2ed 39bd c93a 57bd
00000020: a313 9abd c0b6 d4bd f47a 72bd c135 b93d
00000030: 39cd 463d 15c5 18bd ef88 5d3d 83e3 b73d
00000040: 0f6c 53bc 07b1 ccbd 600a a03c 32b6 3d3c
00000050: dbc5 423d f766 903d d734 cebd 319a 6c3d
00000060: 40fd 09be 9ea6 353d c258 15bd 098c 4e3c
00000070: f286 e8bc 57a9 5bbd 071e 233a db8a a53d
00000080: 97b4 f33d 0183 d33c 5bcf 33bc 010d d43d
00000090: 1f75 d93d 18a4 9e3d 288d 8c3d 93c0 763d
000000a0: 016c 9ebd b7bc a7bd 7345 e23d 335c 82bd
000000b0: 6d9c a9bd 9461 943d af0e ffbd 11cd 233d
000000c0: 8314 97bc 142f 013d 6a36 10bd 558e 043c
000000d0: 266f 113d 7170 0cbc 5dbf 84bd 2f22 da3c
000000e0: 8995 c8bc d6b9 ac3d 84c7 f6bd f688 7a3d
000000f0: b933 46bd c0b1 c33c 26b1 6bbd 2dac eb3a
00000100: bf97 113e 4ff9 033e 9f17 a43c 5bd2 033d
00000110: 5555 9a3d a5dc b53c 1fa5 16bd ab6b 72bd
00000120: b7a7 3bbd 9917 87bc 0c94 603d 98c4 95bc
00000130: f382 95bd 0f39 8d3b 6d52 41bb 63dd dbbc
00000140: 37b9 983d 00ed 553d 8543 15bc 0f8f adbd
00000150: a6cd 04bd a73f 03bd 738e 9b3d 9b95 91bd
00000160: 5724 613d 427d 8abd 1499 c23d 3a20 06be
00000170: 0b60 bebd b434 a63d 45b1 a6bd b81c 7dbd
00000180: 1d14 c8bc ec9b d1bd 0057 e0bb 8f9e 183d
00000190: 02f3 d93c ee64 1b3d f6bb e43d 03bd d8bd
000001a0: 1163 23bd a8d7 e83d 9220 99bd 5f86 c93c
000001b0: 135d 52bd 5368 ec3b 5b81 e63c aa13 b33d
000001c0: a21c 2e3c 85e3 933d 9ed5 cdbb 1829 de3d
000001d0: cf33 b6bd 7697 98bc 28b9 2f3d a824 873d
000001e0: e539 8bbd 0ecd 46bc 7bfc 743d 79d1 d13c
000001f0: 2628 153e 4677 b33c a479 833c c94f e3bc
00000200: adf9 b5bc 21aa 523d 174d d63d 2e4a 6d3d
00000210: 2860 cd3d 0283 e5bd 1a31 343d 31a5 803c
00000220: 44a2 503c 20b8 ebbd b01c d93d bcb2 82bc
00000230: 7345 0cbd 90d2 de3d 81ce 053e 6531 d73d
00000240: bbbe 853d d8d9 11bb abd2 74bd b961 a43d
00000250: aca6 0d3d 1ef0 b23d 9838 dabd 2e93 22bd
00000260: f7dc 49bd be17 d6bd c7a9 5cbd 1cf3 6a3d
00000270: 045c c43a b1d3 2a3d 82cd f03d dc0c 573d
00000280: 33e2 c23c 639f f13d 9d47 93bd fbdd e63d
00000290: e266 253d b0a2 6bbd 0ef7 dd3c fa79 0b3d
000002a0: 02ff babd 0bc7 b7bc 5650 c13d d72e da3d
000002b0: c426 e5bd 30b1 c73d 9518 08bd 6376 d5bd
000002c0: e89b cf3d 4b97 9bbb 434c f43d 6dcd 87bd
000002d0: df35 3f3c 2d0e a9bc f6c1 0fbd de67 a43d
000002e0: 3d88 a23d b3ac 273d 5317 4c3d 653d 3abd
000002f0: caa0 29bc 51a5 3cbd b65d ed3d 1764 823d
00000300: 5976 253d bd71 7b3c bb9b 02bd b993 fb3d
00000310: 045e ab3d e378 b23d 4a38 6ebd 1e51 7ebc
00000320: 667b 87bc ac9a 983d c56c df3d 053b c73b
00000330: dab7 bfbd a05c 54bc 24c0 50bd f278 013e
00000340: 56b1 a2bd d7fb 90bd 6289 d93d 9ec5 debd
00000350: 2b0e 80bd 61a4 0c3d fdf6 923c 57d9 b1bd
00000360: 0d8b a0bd bda2 6e3c 0239 eb3d 67dc e6bd
00000370: feb7 db3d dbf9 c33d b740 96bd cc8b 873b
00000380: 246b 1f3c c613 923d b8fe a5bd 6818 8c3d
00000390: 612d 0bbe 5f0a ebbd b355 ca3d 2f55 aa3d
000003a0: 5694 b7ba d85f e83d 0f99 063d f19a a73d
000003b0: 48d2 1fbd c956 0bbe 3dcf c13d d380 d63d
000003c0: 5ea7 dd3d b1e3 b0bd f9a7 423d 1acf 8b3d
000003d0: 0ae5 903d da86 8e3d 178b 2fbd 882f d83d
000003e0: 0dd8 c03c 1d0a db3d c9eb fc3d 1c9b a1bc
000003f0: c951 66bd 4e0b d83d 99f9 b4bd b6b6 d1bc

transformer.layers.0.self_attn.out_proj.bias f4 [64]
0.012576589 -0.0027041442 0.015678942 -0.0032252953 0.01821361 0.011526357 -0.017387887 -0.0045960452
-0.0037407556 -0.00760408 0.008230523 0.019999642 0.007899647 0.029783923 -0.015231805 -0.0044615683
-0.011630983 -0.0018078479 0.009201801 0.025663322 0.01645873 0.02138604 -0.013286472 -0.014706279
0.0136374505 0.02188124 -0.017691031 0.013484068 -0.011702601 0.021043943 -0.00013590616 -0.036551107
0.0343316 -0.0018145414 0.0031966122 0.034940157 -0.010910052 0.020565908 -0.022325039 -0.008570216
0.023386791 -0.035417054 -0.008979574 -0.018829677 -0.009211241 -0.008254505 -0.017701322 -0.03143475
0.039213985 -0.0012955929 -0.01852707 0.00972948 0.010237952 -0.011370023 0.0054217903 -0.033147734
0.0052660806 0.027307928 -0.009719206 -0.013438877 0.02131606 -0.019240886 -0.010891344 0.014623913
00000000: 0a0e 4e3c 0338 31bb 2071 803c 7a5f 53bb
00000010: b534 953c 0cd9 3c3c 0b71 8ebc 6c9a 96bb
00000020: 7727 75bb a52b f9bb 51d9 063c 4ad6 a33c
00000030: 856d 013c 6afd f33c d28e 79bc 5932 92bb
00000040: e18f 3ebc 4ff5 ecba 27c3 163c e33b d23c
00000050: 75d4 863c c731 af3c 81af 59bc 9bf2 70bc
00000060: 9d6f 5f3c 4940 b33c c8ec 90bc 48ec 5c3c
00000070: 44bc 3fbc 5964 ac3c 0882 0eb9 9db6 15bd
00000080: 4b9f 0c3d e8d5 edba 417e 513b 691d 0f3d
00000090: 13c0 32bc d679 a83c 00e3 b6bc 176a 0cbc
000000a0: a895 bf3c 7911 11bd 101f 13bc b240 9abc
000000b0: bfea 16bc e73d 07bc 5d02 91bc b9c1 00bd
000000c0: d89e 203d e2d0 a9ba 15c6 97bc 6668 1f3c
000000d0: 15bd 273c 5549 3abc 46a9 b13b ebc5 07bd
000000e0: 168f ac3b e0b4 df3c 4e3d 1fbc bc2e 5cbc
000000f0: 059f ae3c 109f 9dbc 9c71 32bc 2399 6f3c

transformer.layers.0.linear1.weight f4 [128, 64]
-0.116050586 0.03420754 -0.18467847 0.042637054 -0.0802964 -0.14131239 0.037676 -0.015402133
0.05856057 -0.032714326 0.07227245 0.08651874 0.045951463 0.003261557 0.081015885 0.12816368
0.028075289 0.0118236365 0.16872694 -0.00946475 -0.1189662 0.07267195 -0.028596055 0.009112973
-0.0009463413 0.100753345 0.09828096 0.07107385 0.11536386 -0.019723674 0.16343889 -0.08797638
0.11851149 -0.02351563 0.09038894 -0.010661522 -0.0017650055 -0.09076996 0.06393614 -0.10482438
-0.1791083 0.06628485 -0.035840236 0.017659586 0.022097925 0.06912735 0.032272752 0.044463925
-0.08342236 0.18725292 0.13398907 0.19833921 -0.03512357 0.13485618 0.005598198 -0.010659759
0.04577957 0.0793382 0.027880576 0.07791593 0.0032397197 -0.13145506 0.07245223 -0.044945844
-0.041820165 0.0035499674 -0.07064971 -0.12102064 -0.13086802 0.12320658 0.09033224 -0.034840394
-0.014312462 -0.025382694 0.05095632 0.00049448805 -0.032394413 -0.04327526 0.05810131 -0.14150599
-0.00766415 -0.031106642 -0.004122468 0.03587065 -0.0893572 0.0558674 0.07608056 0.041164197
0.04356954 0.02449992 0.045430295 -0.1327922 -0.05178861 -0.12666208 0.10655959 0.006868343
-0.14522082 0.0032616726 -0.11592296 -0.09094533 0.032257557 -0.10990924 0.07729949 -0.101078674
0.0048256493 0.14182623 0.16103217 0.09204666 -0.029604474 0.120277114 -0.09111119 -0.08720969
0.0510049 0.07912517 0.018964065 0.028793586 -0.007395171 -0.051704902 -0.01653704 -0.06987297
0.10742146 -0.10042126 0.031941764 0.06372702 -0.09198017 -0.005178347 0.0014695744 -0.065711565
-0.05775711 0.087862134 0.05109099 -0.09075213 0.061787825 0.04213153 -0.068173334 -0.11992067
0.0921779 0.106943354 -0.026726367 -0.066271946 0.03310993 0.06287715 -0.061102677 -0.040126864
-0.08483214 -0.059970234 0.016138019 -0.016439283 -0.011521039 0.038233988 0.10503126 -0.058549684
-0.08588219 0.024977129 -0.07678189 0.11616032 -0.11034218 -0.028545942 0.09139491 0.10353332
0.0018169852 -0.08366781 0.07980066 -0.10416637 -0.07295691 0.05098493 -0.044049196 0.056055076
-0.0060214507 -0.0067570987 -0.067253694 0.006516555 0.06955157 -0.049433984 -0.03824876 -0.05395298
0.1210361 -0.0805687 -0.02689528 0.024771096 -0.09899494 -0.017941756 -0.07073698 0.09018227
0.052882846 -0.09940354 -0.123635605 -0.04968261 0.10795604 0.0715981 0.09081983 -0.051411204
-0.12779774 0.058880206 -0.051540636 0.11266695 -0.09116458 0.0024099231 0.11573301 0.08206686
-0.08960116 -0.06717618 -0.10008991 -0.11195673 -0.083402164 -0.008646381 -0.05487048 0.08045412
0.13734636 -0.04825347 -0.056649886 0.006375464 -0.13651066 -0.089415394 0.063699864 0.16093726
-0.0025648803 -0.00757423 0.10963922 0.10889598 0.034547716 -0.016352171 -0.0217759 0.10121239
0.07373098 0.08660128 -0.037480514 -0.09179319 -0.014150922 -0.0049493946 0.047792085 0.09195629
-0.053586144 -0.05612598 -0.02734885 0.0074448893 -0.056239992 0.0033651583 0.060489397 -0.077192105
-0.17627785 -0.0057176324 0.14804114 -0.08013327 0.08715965 0.08536307 0.019482259 -0.022711411
-0.09415094 0.097467706 -0.029516729 -0.045846306 0.027958238 0.13767925 0.043851964 -0.13654763
00000000: eeab edbd 351d 0c3d 5a1c 3dbe 31a4 2e3d
00000010: 7072 a4bd 32b4 10be 2652 1a3d 3a59 7cbc
00000020: 35dd 6f3d 75ff 05bd 9403 943d bd30 b13d
00000030: 9a37 3c3d d9bf 553b a8eb a53d 573d 033e
00000040: 26fe e53c edb7 413c c1c6 2c3e 0a12 1bbc
00000050: 8da4 f3bd 08d5 943d 4642 eabc 944e 153c
00000060: e413 78ba c557 ce3d 8747 c93d 2b8f 913d
00000070: e343 ec3d 8b93 a1bc 865c 273e f62c b4bd
00000080: 27b6 f23d daa3 c0bc d61d b93d aaad 2ebc
00000090: c257 e7ba 9ae5 b9bd f3f0 823d 2aae d6bd
000000a0: 2b68 37be 5ac0 873d 36cd 12bd d6aa 903c
000000b0: b506 b53c a492 8d3d 6f30 043d ce1f 363d
000000c0: 58d9 aabd 3bbf 3f3e 6e34 093e 6f19 4b3e
000000d0: bcdd 0fbd bd17 0a3e 1771 b73b 45a6 2ebc
000000e0: 5c83 3b3d 117c a23d ce65 e43c 6392 9f3d
000000f0: 7a51 543b 289c 06be d661 943d 2219 38bd
00000100: 9f4b 2bbd 92a6 683b ccb0 90bd abd9 f7bd
00000110: 4402 06be bb53 fc3d 1c00 b93d cdb4 0ebd
00000120: d17e 6abc 5eef cfbc 93b7 503d 88a0 013a
00000130: 01b0 04bd 6641 31bd a4fb 6d3d f2e6 10be
00000140: 8d23 fbbb 5bd3 febc c515 87bb 1aed 123d
00000150: e800 b7bd 37d5 643d 20d0 9b3d ca9b 283d
00000160: f975 323d 0eb4 c83c 1e15 3a3d aefa 07be
00000170: 4b20 54bd b4b3 01be ea3b da3d d60f e13b
00000180: c4b4 14be c9c1 553b 0469 edbd 8c41 babd
00000190: 8020 043d 1818 e1bd 324f 9e3d 5602 cfbd
000001a0: 7b20 9e3b e53a 113e 9ee5 243e f682 bc3d
000001b0: 1585 f2bc d953 f63d 8198 babd fe9a b2bd
000001c0: 84ea 503d 610c a23d 875a 9b3c 87e0 eb3c
000001d0: 3153 f2bb 85c8 53bd b078 87bc 8f19 8fbd
000001e0: c8ff db3d a9a9 cdbd 5ed5 023d 5083 823d
000001f0: 1960 bcbd 20af a9bb bc9e c03a c993 86bd
00000200: b892 6cbd 10f1 b33d c944 513d 41dc b9bd
00000210: 3b15 7d3d 1c92 2c3d 769e 8bbd f898 f5bd
00000220: c4c7 bc3d 1e05 db3d 41f1 dabc 96b9 87bd
00000230: 479e 073d bcc5 803d cd46 7abd 115c 24bd
00000240: 79bc adbd 59a3 75bd e133 843c adab 86bc
00000250: bdc2 3cbc 3e9b 1c3d a11a d73d cbd1 6fbd
00000260: 00e3 afbd d69c cc3c d33f 9dbd 76e5 ed3d
00000270: 15fb e1bd 2ed9 e9bc 412d bb3d 4709 d43d
00000280: e827 ee3a 075a abbd 876e a33d 2e55 d5bd
00000290: 6f6a 95bd 93d5 503d ee6c 34bd 029a 653d
000002a0: 974f c5bb a76a ddbb 4ebc 89bd d388 d53b
000002b0: 0e71 8e3d 4a7b 4abd bbaa 1cbd cdfd 5cbd
000002c0: c6e1 f73d 3401 a5bd 7e53 dcbc c1ec ca3c
000002d0: dcbd cabd 97fa 92bc 8dde 90bd 7bb1 b83d
000002e0: af9b 583d 1594 cbbd aa34 fdbd fe7f 4bbd
000002f0: 0e18 dd3d 06a2 923d bfff b93d 8e94 52bd
00000300: 69dd 02be 5f2c 713d 461c 53bd eebd e63d
00000310: 7fb4 babd cdef 1d3b 6e05 ed3d ab12 a83d
00000320: d080 b7bd aa93 89bd f0fb ccbd 9249 e5bd
00000330: c1ce aabd 8da9 0dbc debf 60bd 21c5 a43d
00000340: 86a4 0c3e 6ea5 45bd b609 68bd 45e9 d03b
00000350: 73c9 0bbe 6b1f b7bd 1375 823d bdcc 243e
00000360: 8d17 28bb 3f31 f8bb 878a e03d db04 df3d
00000370: e881 0d3d fdf4 85bc 5f63 b2bc 7148 cf3d
00000380: 4500 973d 035c b13d 2b85 19bd 11fe bbbd
00000390: 45d9 67bc 882e a2bb a2c1 433d 9453 bc3d
000003a0: 257d 5bbd 5be4 65bd b20a e0bc 42f4 f33b
000003b0: e85b 66bd fd89 5c3b bbc3 773d e516 9ebd
000003c0: 2e82 34be fa5a bbbb 1998 173e e91c a4bd
000003d0: c280 b23d d5d2 ae3d 4299 9f3c 480d babc
000003e0: 35d2 c0bd 269d c73d 11cd f1bc 56c9 3bbd
000003f0: ad08 e53c cafb 0c3e 1e9e 333d 24d3 0bbe

transformer.layers.0.linear1.bias f4 [128]
-0.008987411 0.06442321 -0.004062587 0.005282101 0.048046697 -0.050563365 0.025697218 0.025029799
0.09400587 -0.10821131 0.006477347 0.059555084 0.116818294 -0.041113127 -0.025661081 -0.11848285
0.12329014 -0.032930207 0.038167916 -0.12485021 -0.036203515 -0.06144431 0.040893834 -0.10902642
0.085293934 -0.09326705 -0.056872718 -0.10473557 0.06518793 0.05489475 -0.10276755 0.023771118
0.020654261 -0.07511613 0.10819465 -0.0029396315 -0.09810284 -0.0487142 -0.06507094 0.01978123
-0.095318735 0.108470954 -0.07836691 -0.017355332 0.08874007 0.09863802 0.044697214 -0.116768666
-0.13463444 0.0022704015 0.043567535 -0.027389793 0.069913164 -0.039301448 0.077090226 -0.11379221
0.08790239 -0.06299152 -0.120542094 -0.053267725 0.015483002 0.060737997 0.09182973 0.030957429
0.028952824 0.09148934 -0.10421879 -0.07836753 -0.061540347 -0.038371462 0.057317924 -0.048118513
0.09381622 -0.024246633 0.095736586 0.034486108 0.013330597 -0.08579349 -0.08908198 0.019416606
0.0971259 0.06384406 -0.026212316 -0.12995261 0.07493412 0.034828182 0.03312048 -0.05518569
0.062928185 0.07427341 -0.016078433 -0.017236693 0.02757959 0.07179682 -0.11742508 0.056983214
-0.07654693 -0.07900572 -0.014965059 0.08198567 -0.06798769 0.017188093 0.0987788 -0.038832024
-0.05078698 -0.023847219 -0.064049534 0.005117311 -0.08545861 -0.10459448 0.123372234 0.007363219
0.08225851 -0.11683936 -0.07377559 -0.108732946 -0.09807539 0.03400267 0.074474216 -0.1148562
-0.0462808 0.065547615 0.01957281 -0.04433219 -0.06793785 0.05092251 -0.11176054 0.01849448
00000000: ef3f 13bc 51f0 833d 731f 85bb 7a15 ad3b
00000010: 9dcc 443d 881b 4fbd f982 d23c 4b0b cd3c
00000020: 2686 c03d e49d ddbd ed3f d43b 08f0 733d
00000030: 6e3e ef3d 3d66 28bd 3037 d2bc 23a7 f2bd
00000040: 8a7f fc3d d3e1 06bd f655 1c3d 78b1 ffbd
00000050: 234a 14bd 07ad 7bbd 4b80 273d 3e49 dfbd
00000060: 96ae ae3d cc02 bfbd 5ef3 68bd 9a7f d6bd
00000070: 4081 853d 51d9 603d cb77 d2bd a6bb c23c
00000080: 2033 a93c 7cd6 99bd 2895 dd3d d5a6 40bb
00000090: 24ea c8bd 8a88 47bd ea43 85bd 3f0c a23c
000000a0: 7836 c3bd 0526 de3d d57e a0bd c52c 8ebc
000000b0: 5bbd b53d bb02 ca3d 6d14 373d 6924 efbd
000000c0: 9cdd 09be 04cb 143b df73 323d 8f60 e0bc
000000d0: a22e 8f3d 8efa 20bd 7be1 9d3d e40b e9bd
000000e0: 2b06 b43d b301 81bd c6de f6bd 422f 5abd
000000f0: 6bac 7d3c 68c8 783d 3a11 bc3d 6f9a fd3c
00000100: 792e ed3c c35e bb3d a970 d5bd 287f a0bd
00000110: bb11 7cbd 652b 1dbd 33c6 6a3d eb17 45bd
00000120: b822 c03d e0a0 c6bc 8b11 c43d 4e41 0d3d
00000130: 9468 5a3c 7fb4 afbd 9d70 b6bd 930f 9f3c
00000140: f2e9 c63d adc0 823d 36bb d6bc 4c12 05be
00000150: 0f77 993d ffa7 0e3d 57a9 073d 640a 62bd
00000160: 7ee0 803d a81c 983d ebb6 83bc f733 8dbc
00000170: 98ee e13c 360a 933d 8f7c f0bd 3b67 693d
00000180: a3c4 9cbd c0cd a1bd 0230 75bc 1ae8 a73d
00000190: 213d 8bbd 0bce 8c3c 8a4c ca3d 540e 1fbd
000001a0: 0206 50bd 3e5b c3bc 672c 83bd 1eaf a73b
000001b0: ec04 afbd a135 d6bd 95aa fc3d 2847 f13b
000001c0: 2677 a83d 7949 efbd a817 97bd 61af debd
000001d0: c0db c8bd 6246 0b3d f085 983d ba39 ebbd
000001e0: f090 3dbd d43d 863d 2857 a03c ac95 35bd
000001f0: 0023 8bbd 1f94 503d b6e2 e4bd bc81 973c

transformer.layers.0.linear2.weight f4 [64, 128]
0.08165419 0.06251831 0.02934376 -0.04444149 -0.050032843 0.021052713 -0.065146856 0.028055228
0.037414305 0.037029035 0.089740425 0.061483692 0.03645142 -0.026864663 -0.012079215 0.023577163
-0.050026897 -0.042059164 -0.012781802 -0.042714205 -0.019394524 -0.061074752 0.04103868 0.03543857
-0.08162425 -0.039068114 -0.04527175 0.043102734 -0.024248783 0.027187962 0.030844241 0.054189876
0.02657497 0.030575218 0.065175705 0.04970804 -0.017835233 0.01935705 -0.0367976 0.066072784
-0.035983816 0.07431492 -0.029189374 0.07510006 0.03569025 0.070759155 0.06809399 0.020387823
-0.02019212 0.075212 0.05714295 0.0029937748 -0.00991514 -0.063405074 -0.04314855 0.052652523
-0.045691077 0.063173465 -0.029553263 0.08739972 -0.087756954 -0.022480514 -0.04590217 0.0688227
0.025225723 0.045090497 0.043629494 0.024642764 0.08003409 0.049401745 0.08848466 -0.051022615
-0.04194152 0.061237115 -0.04946195 0.08632978 0.08147842 -0.07370853 0.08874569 0.09458555
-0.019679053 -0.0344003 0.077332616 -0.05107442 0.067783155 -0.021247527 0.0036991292 0.03832996
-0.040299993 -0.002962753 0.033195924 0.06043015 0.07004307 -0.02820324 0.025772402 0.04100193
0.027948445 0.058026392 -0.085813835 -0.03016213 -0.07167263 -0.07120746 0.03289624 -0.018743567
0.014866615 0.025677225 0.005343829 0.0370149 0.0073286328 0.021238316 0.013768826 0.013554197
0.06659084 -0.055029675 -0.06152586 0.056604914 -0.04264793 0.02368793 -0.059101306 -0.058231555
-0.07786556 -0.008429302 0.0604861 -0.0599359 0.03035902 -0.03447452 0.041886996 0.009803096
-0.12325327 -0.06104376 0.06197087 -0.0048099165 0.0735186 0.06402156 -0.003189789 -0.103501946
-0.08743126 -0.05855983 -0.09461929 -0.07859308 -0.04995568 0.007600612 -0.11577835 -0.013929429
-0.02042578 0.003433527 -0.06721561 -0.026296653 0.07749137 0.03699652 0.026712507 -0.00142615
-0.087109275 0.016582033 -0.009374332 0.03973324 0.025085047 -0.07422214 -0.08329523 0.0547494
0.020488728 -0.05118571 -0.042511597 0.049411874 -0.06793844 -0.12913649 0.030046264 -0.0010376849
0.0144889895 0.02449911 -0.06977297 0.0036489023 -0.037998356 -0.03444612 -0.07046897 0.06579816
0.087162316 -0.045053467 0.042534 0.025847124 -0.021353252 -0.08952041 -0.06187907 -0.076987036
-0.08300683 0.002846486 0.04078724 -0.11297705 -0.09778129 -0.0740975 -0.08912599 -0.033124685
0.011639992 0.06743783 -0.03575864 -0.016394438 -0.045377504 0.05878363 0.023779865 -0.09994389
0.083482556 0.019704234 -0.023355696 -0.028933272 0.009940067 -0.040378146 -0.101196624 0.022120398
-0.030326486 -0.018141799 0.045853022 -0.09432696 -0.03516953 0.065687336 -0.04604682 -0.08193021
-0.032316882 0.037698954 0.09674651 -0.034641862 -0.08007436 0.028850665 0.0723923 -0.08944783
0.066780545 -0.0767702 0.10520848 -0.057353973 0.0045495145 -0.043428913 0.0031268985 0.02152074
-0.14222041 -0.06917149 -0.059813596 -0.09409562 -0.094513044 -0.031932518 -0.09749326 -0.0879548
-0.102911755 -0.008185926 -0.04646106 0.06121165 0.0393772 0.026443038 -0.027674071 -0.09006015
-0.0921539 -0.012412406 0.050273553 0.029363431 -0.07077079 0.027648859 0.019050602 -0.08049017
00000000: 503a a73d 9a09 803d 5362 f03c 4808 36bd
00000010: 3def 4cbd bd76 ac3c b76b 85bd 14d4 e53c
00000020: be3f 193d c2ab 173d d4c9 b73d 53d6 7b3d
00000030: 164e 153d 4813 dcbc e6e7 45bc e524 c13c
00000040: 01e9 4cbd 3b46 2cbd c36a 51bc 17f5 2ebd
00000050: 44e1 9ebc 8529 7abd 2d18 283d 0928 113d
00000060: 9d2a a7bd e305 20bd df6e 39bd 7e8c 303d
00000070: 62a5 c6bc 4ab9 de3c 10ad fc3c 34f6 5d3d
00000080: c0b3 d93c e178 fa3c d77a 853d a89a 4b3d
00000090: 321b 92bc ad92 9e3c 15b9 16bd 2b51 873d
000000a0: c463 13bd 6c32 983d 8e1e efbc 0fce 993d
000000b0: f12f 123d 2dea 903d dd74 8b3d 5d04 a73c
000000c0: f269 a5bc c008 9a3d ba0e 6a3d 3533 443b
000000d0: 1d73 22bc 85da 81bd 89bc 30bd 2caa 573d
000000e0: 9126 3bbd 1761 813d af19 f2bc a0fe b23d
000000f0: ebb9 b3bd 0e29 b8bc ea03 3cbd eaf2 8c3d
00000100: 2da6 ce3c d0b0 383d d7b4 323d 9fdf c93c
00000110: eae8 a33d 7c59 4a3d 7237 b53d 17fd 50bd
00000120: dfca 2bbd c5d3 7a3d 9d98 4abd abcd b03d
00000130: 28de a63d 7ff4 96bd 4dc0 b53d 12b6 c13d
00000140: f735 a1bc 54e7 0cbd 9060 9e3d 6933 51bd
00000150: e5d1 8a3d 4b0f aebc 176d 723b e0ff 1c3d
00000160: 9b11 25bd bf2a 42bb 73f8 073d 9b85 773d
00000170: be72 8f3d 7b0a e7bc a520 d33c a4f1 273d
00000180: 23f4 e43c 15ad 6d3d 2abf afbd 9216 f7bc
00000190: 1ac9 92bd 37d5 91bd 35be 063d 1c8c 99bc
000001a0: 1a93 733c 0b59 d23c 491b af3b f09c 173d
000001b0: 0725 f03b fafb ad3c a496 613c 6c12 5e3c
000001c0: c760 883d cc66 61bd 8a02 7cbd 8eda 673d
000001d0: 99af 2ebd 310d c23c 3614 72bd 3684 6ebd
000001e0: fb77 9fbd 0e1b 0abc 46c0 773d 597f 75bd
000001f0: 7bb3 f83c 2735 0dbd b391 2b3d 2a9d 203c
00000200: 366c fcbd 0609 7abd 2bd5 7d3d 819c 9dbb
00000210: eb90 963d bc1d 833d c70b 51bb d4f8 d3bd
00000220: 290f b3bd 6fdc 6fbd c2c7 c1bd 69f5 a0bd
00000230: 549e 4cbd 8e0e f93b 331d edbd 4338 64bc
00000240: f753 a7bc 0605 613b 56a8 89bd 146c d7bc
00000250: ccb3 9e3d aa89 173d 30d4 da3c a7ed baba
00000260: 5966 b2bd 0bd7 873c cc96 19bc 52bf 223d
00000270: 287f cd3c c701 98bd b196 aabd e840 603d
00000280: fad7 a73c 1ba8 51bd a420 2ebd 1b64 4a3d
00000290: 4f23 8bbd 5b3c 04be 9523 f63c ed02 88ba
000002a0: 3a63 6d3c 5cb2 c83c 22e5 8ebd 6c22 6f3b
000002b0: 2aa4 1bbd 6017 0dbd 0952 90bd 30c1 863d
000002c0: 2882 b23d fc89 38bd 2238 2e3d 59bd d33c
000002d0: 04ed aebc 7a56 b7bd e874 7dbd 61ab 9dbd
000002e0: 7cff a9bd 1c8c 3a3b 8510 273d 8360 e7bd
000002f0: 8f41 c8bd 6ec0 97bd b087 b6bd c0ad 07bd
00000300: aab5 3e3c d81c 8a3d a777 12bd a14d 86bc
00000310: c3dd 39bd 1bc7 703d fecd c23c 62af ccbd
00000320: e7f8 aa3d c66a a13c 7254 bfbc 7805 edbc
00000330: aadb 223c 8e63 25bd 2d40 cfbd d635 b53c
00000340: 406f f8bc 1c9e 94bc 61d0 3b3d 7e2e c1bd
00000350: ed0d 10bd 1587 863d 979b 3cbd 07cb a7bd
00000360: b55e 04bd 386a 1a3d 0923 c63d a0e4 0dbd
00000370: 07fe a3bd 3b58 ec3c 6a42 943d 6d30 b7bd
00000380: 3dc4 883d b239 9dbd 8b77 d73d 00ec 6abd
00000390: 1814 953b 84e2 31bd a7ec 4c3b 434c b03c
000003a0: 3aa2 11be c8a9 8dbd 1aff 74bd 34b5 c0bd
000003b0: 0e90 c1bd accb 02bd 8caa c7bd a521 b4bd
000003c0: 66c3 d2bd 431e 06bc f44d 3ebd 11b9 7a3d
000003d0: fd49 213d 129f d83c bcb4 e2bc 7571 b8bd
000003e0: 2fbb bcbd 675d 4bbc a4eb 4d3d 948b f03c
000003f0: 47f0 90bd dc7f e23c 0210 9c3c 08d8 a4bd

transformer.layers.0.linear2.bias f4 [64]
0.08519609 0.050790332 0.060150567 0.027840484 -0.010744749 -0.06589679 0.007565092 0.003542714
-0.04123502 0.06535196 0.08589551 0.060747985 0.0074520474 -0.051978037 0.016867239 0.00075742835
0.07385143 0.039329134 0.033172924 0.03888449 0.061486278 -0.0589606 0.056440882 -0.0202591
-0.03844526 -0.032655343 0.08069546 0.057037678 -0.04346308 -0.0094974255 -0.034363642 -0.09714878
-0.024159862 -0.03996114 0.060899835 0.020477004 0.049482603 -0.009399929 0.07923684 -0.0045303195
-0.061699323 -0.048138116 0.06756191 0.02828297 0.05689398 -0.057506308 -0.010136532 -0.043685347
0.0017846345 -0.036687553 -0.025260478 0.09548398 0.054390017 -0.02248377 0.08272445 0.0427852
0.062359814 -0.026778758 -0.086847484 0.040652413 0.029150872 0.033997748 -0.002036174 0.0139736235
00000000: 4a7b ae3d 8609 503d 7160 763d ba11 e43c
00000010: be0a 30bc e5f4 86bd 97e4 f73b e12c 683b
00000020: 0de6 28bd 40d7 853d fce9 af3d e1d2 783d
00000030: 4e30 f43b ece6 54bd 2a2d 8a3c 288e 463a
00000040: 6b3f 973d 9617 213d 55e0 073d 5845 1f3d
00000050: 09d9 7b3d ac80 71bd 8e2e 673d 69f6 a5bc
00000060: c778 1dbd 9cc1 05bd a943 a53d 57a0 693d
00000070: 5806 32bd 179b 1bbc e4c0 0cbd f1f5 c6bd
00000080: e7ea c5bc 4bae 23bd 1b72 793d 64bf a73c
00000090: 45ae 4a3d 2902 1abc ed46 a23d 1373 94bb
000000a0: 6eb8 7cbd 792c 45bd e65d 8a3d b0b1 e73c
000000b0: a909 693d bc8b 6bbd b213 26bc 68ef 32bd
000000c0: 66ea e93a b045 16bd 10ef cebc 1b8d c33d
000000d0: 11c8 5e3d e22f b8bc 706b a93d 893f 2f3d
000000e0: 016d 7f3d 205f dbbc 18dd b1bd 2583 263d
000000f0: cfcd ee3c 3941 0b3d 5571 05bb a0f1 643c

transformer.layers.0.norm1.weight f4 [64]
1.005713 0.9886005 1.0003127 0.9289463 0.9659849 1.0175502 0.9756667 0.94071203
0.97638065 0.9530396 1.0063851 1.0093614 0.9557808 1.0740992 1.0451734 1.0059153
0.9686014 1.0074685 1.0282462 1.0252205 0.9904421 0.98077446 0.9657048 1.0180823
1.0037869 1.0458912 1.0507115 0.9976029 1.0211289 1.0195975 0.96672344 0.9815104
1.0110356 0.98319584 0.9687876 1.0103021 0.971709 1.010491 1.0313747 0.97658896
1.0751345 1.0268779 1.114418 1.0593266 0.99983066 0.95399666 0.9952744 1.0078812
1.0361822 1.0261129 0.9981942 0.9941176 1.026059 0.99933416 1.0504802 1.0178032
0.9437728 1.0256953 0.99780744 0.9818663 0.9974585 1.003104 0.9633929 1.0705138
00000000: 34bb 803f ec14 7d3f 3f0a 803f 6dcf 6d3f
00000010: c94a 773f 163f 823f 4bc5 793f 81d2 703f
00000020: 15f4 793f 67fa 733f 3ad1 803f c132 813f
00000030: 0dae 743f 157c 893f 3ec8 853f d5c1 803f
00000040: 43f6 773f baf4 803f 929d 833f 6d3a 833f
00000050: 9d8d 7d3f 0914 7b3f 6e38 773f 8550 823f
00000060: 177c 803f c3df 853f b77d 863f e762 7f3f
00000070: 5ab4 823f 2c82 823f 307b 773f 4444 7b3f
00000080: 9d69 813f b9b2 7b3f 7702 783f 9451 813f
00000090: ecc1 783f c557 813f 1604 843f bc01 7a3f
000000a0: 029e 893f bc70 833f 40a5 8e3f 0498 873f
000000b0: e7f4 7f3f 2039 743f 4eca 7e3f 4002 813f
000000c0: 9ea1 843f ab57 833f a889 7f3f 7e7e 7e3f
000000d0: e755 833f 5dd4 7f3f 2376 863f 6047 823f
000000e0: 189b 713f fc49 833f 4f70 7f3f 975b 7b3f
000000f0: 7159 7f3f b665 803f eba0 763f 9906 893f
